…
100%|█████████████████████████████████████████████████████████████████████████████████████████████████████████████████████████████████████████████████████████████| 3/3 [00:00<00:00, 667.92it/s]
Found cached dataset parquet (/home/sooh/.cache/huggingface/datasets/derek-thomas___parquet/derek-thomas--ScienceQA-ca4903a3b5795914/0.0.0/2a3b91fbd88a2c90d1dbbb32b460cf621d31bd5b05b934492fdef7d8d6f236ec)
100%|█████████████████████████████████████████████████████████████████████████████████████████████████████████████████████████████████████████████████████████████| 3/3 [00:00<00:00, 784.96it/s]
[16:03:53.710758] /data1/data/sooh-data/llama/7B/consolidated.00.pth
[16:03:55.648527] Model = Transformer(
  (tok_embeddings): Embedding(32000, 4096)
  (adapter_query): Embedding(300, 4096)
  (criterion): CrossEntropyLoss()
  (layers): ModuleList(
    (0-31): 32 x TransformerBlock(
      (attention): Attention(
        (wq): Linear(in_features=4096, out_features=4096, bias=False)
        (wk): Linear(in_features=4096, out_features=4096, bias=False)
        (wv): Linear(in_features=4096, out_features=4096, bias=False)
        (wo): Linear(in_features=4096, out_features=4096, bias=False)
      )
      (feed_forward): FeedForward(
        (w1): Linear(in_features=4096, out_features=11008, bias=False)
        (w2): Linear(in_features=11008, out_features=4096, bias=False)
        (w3): Linear(in_features=4096, out_features=11008, bias=False)
      )
      (attention_norm): RMSNorm()
      (ffn_norm): RMSNorm()
    )
  )
  (norm): RMSNorm()
  (output): Linear(in_features=4096, out_features=32000, bias=False)
)
[16:03:55.648930] base lr: 9.00e-03
[16:03:55.649045] actual lr: 5.62e-04
[16:03:55.649158] accumulate grad iterations: 1
[16:03:55.649246] effective batch size: 16
[16:03:56.865224] AdamW (
Parameter Group 0
    amsgrad: False
    betas: (0.9, 0.95)
    capturable: False
    differentiable: False
    eps: 1e-08
    foreach: None
    fused: None
    lr: 0.0005625
…
