…
output_dir='/data1/data/sooh-data/llama/hipe/checkpoint/',
pin_mem=True,
rank=0,
resume='',
seed=0,
start_epoch=0,
warmup_epochs=2,
weight_decay=0.02,
world_size=8)
[16:02:22.662789] =================DATA VALIDATION=================
[16:02:22.663100] <__main__.InstructionDataset object at 0x7f4e03a7a940>
[16:02:22.663216] <__main__.InstructionDataset object at 0x7f4d30459d90>
[16:02:22.663398] Sampler_train = <torch.utils.data.distributed.DistributedSampler object at 0x7f4d30459f10>
[16:02:27.723668] /data1/data/sooh-data/llama/7B/consolidated.00.pth
[16:02:30.100388] Model = Transformer(
  (tok_embeddings): Embedding(32000, 4096)
  (adapter_query): Embedding(300, 4096)
  (criterion): CrossEntropyLoss()
  (layers): ModuleList(
    (0-31): 32 x TransformerBlock(
      (attention): Attention(
        (wq): Linear(in_features=4096, out_features=4096, bias=False)
        (wk): Linear(in_features=4096, out_features=4096, bias=False)
        (wv): Linear(in_features=4096, out_features=4096, bias=False)
        (wo): Linear(in_features=4096, out_features=4096, bias=False)
      )
      (feed_forward): FeedForward(
        (w1): Linear(in_features=4096, out_features=11008, bias=False)
        (w2): Linear(in_features=11008, out_features=4096, bias=False)
        (w3): Linear(in_features=4096, out_features=11008, bias=False)
      )
      (attention_norm): RMSNorm()
      (ffn_norm): RMSNorm()
    )
  )
  (norm): RMSNorm()
  (output): Linear(in_features=4096, out_features=32000, bias=False)
)
[16:02:30.100987] base lr: 9.00e-03
[16:02:30.101128] actual lr: 1.12e-03
[16:02:30.101233] accumulate grad iterations: 1
[16:02:30.101326] effective batch size: 32
[16:02:31.594781] AdamW (
Parameter Group 0
    amsgrad: False
    betas: (0.9, 0.95)
    capturable: False
    differentiable: False
    eps: 1e-08
    foreach: None
    fused: None
    lr: 0.001125
…
