…
output_dir='/data1/data/sooh-data/llama/archiv/checkpoint/',
pin_mem=True,
rank=0,
resume='',
seed=0,
start_epoch=0,
warmup_epochs=2,
weight_decay=0.02,
world_size=4)
[09:29:39.419897] =================DATA VALIDATION=================
[09:29:39.420409] <__main__.InstructionDataset object at 0x7f53cc5d5970>
[09:29:39.420530] <__main__.InstructionDataset object at 0x7f5320f53d90>
[09:29:39.420719] Sampler_train = <torch.utils.data.distributed.DistributedSampler object at 0x7f5320ca1280>
[09:29:44.523145] /data1/data/sooh-data/llama/7B/consolidated.00.pth
[09:29:46.797429] Model = Transformer(
  (tok_embeddings): Embedding(32000, 4096)
  (adapter_query): Embedding(300, 4096)
  (criterion): CrossEntropyLoss()
  (layers): ModuleList(
    (0-31): 32 x TransformerBlock(
      (attention): Attention(
        (wq): Linear(in_features=4096, out_features=4096, bias=False)
        (wk): Linear(in_features=4096, out_features=4096, bias=False)
        (wv): Linear(in_features=4096, out_features=4096, bias=False)
        (wo): Linear(in_features=4096, out_features=4096, bias=False)
      )
      (feed_forward): FeedForward(
        (w1): Linear(in_features=4096, out_features=11008, bias=False)
        (w2): Linear(in_features=11008, out_features=4096, bias=False)
        (w3): Linear(in_features=4096, out_features=11008, bias=False)
      )
      (attention_norm): RMSNorm()
      (ffn_norm): RMSNorm()
    )
  )
  (norm): RMSNorm()
  (output): Linear(in_features=4096, out_features=32000, bias=False)
)
[09:29:46.797736] base lr: 9.00e-03
[09:29:46.797858] actual lr: 5.62e-04
[09:29:46.797951] accumulate grad iterations: 1
[09:29:46.798044] effective batch size: 16
[09:29:46.830532] AdamW (
Parameter Group 0
    amsgrad: False
    betas: (0.9, 0.95)
    capturable: False
    differentiable: False
    eps: 1e-08
    foreach: None
    fused: None
    lr: 0.0005625
…
