…
llama_model_path='/data1/data/sooh-data/llama/',
local_rank=8,
log_dir='./output_dir',
lr=None,
max_seq_len=512,
min_lr=0.0,
model='Llama7B_adapter',
num_workers=10,
output_dir='/data1/data/sooh-data/llama/hipe/checkpoint-prompt1/',
pin_mem=True,
rank=0,
resume='',
seed=0,
start_epoch=0,
warmup_epochs=2,
weight_decay=0.02,
world_size=4)
[09:48:32.149541] =================DATA VALIDATION=================
[09:48:32.150052] Sampler_train = <torch.utils.data.distributed.DistributedSampler object at 0x7fdbe059e9a0>
[09:48:36.626213] /data1/data/sooh-data/llama/7B/consolidated.00.pth
[09:48:38.955053] Model = Transformer(
  (tok_embeddings): Embedding(32000, 4096)
  (adapter_query): Embedding(300, 4096)
  (criterion): CrossEntropyLoss()
  (layers): ModuleList(
    (0-31): 32 x TransformerBlock(
      (attention): Attention(
        (wq): Linear(in_features=4096, out_features=4096, bias=False)
        (wk): Linear(in_features=4096, out_features=4096, bias=False)
        (wv): Linear(in_features=4096, out_features=4096, bias=False)
        (wo): Linear(in_features=4096, out_features=4096, bias=False)
      )
      (feed_forward): FeedForward(
        (w1): Linear(in_features=4096, out_features=11008, bias=False)
        (w2): Linear(in_features=11008, out_features=4096, bias=False)
        (w3): Linear(in_features=4096, out_features=11008, bias=False)
      )
      (attention_norm): RMSNorm()
      (ffn_norm): RMSNorm()
    )
  )
  (norm): RMSNorm()
  (output): Linear(in_features=4096, out_features=32000, bias=False)
)
[09:48:38.955384] base lr: 9.00e-03
[09:48:38.955538] actual lr: 5.62e-04
[09:48:38.955684] accumulate grad iterations: 1
[09:48:38.955794] effective batch size: 16
[09:48:38.995095] AdamW (
Parameter Group 0
    amsgrad: False
    betas: (0.9, 0.95)
    capturable: False
    differentiable: False
    eps: 1e-08
    foreach: None
    fused: None
    lr: 0.0005625
…
