…
output_dir='/data1/data/sooh-data/llama/checkpoint3/',
pin_mem=True,
rank=0,
resume='',
seed=0,
start_epoch=0,
warmup_epochs=2,
weight_decay=0.02,
world_size=4)
[15:50:39.432570] =================DATA VALIDATION=================
[15:50:39.432894] <__main__.InstructionDataset object at 0x7f380600a8b0>
[15:50:39.432998] <__main__.InstructionDataset object at 0x7f374e0c6b20>
[15:50:39.433258] Sampler_train = <torch.utils.data.distributed.DistributedSampler object at 0x7f376599ca90>
[15:50:44.215458] /data1/data/sooh-data/llama/7B/consolidated.00.pth
[15:50:46.002757] Model = Transformer(
  (tok_embeddings): Embedding(32000, 4096)
  (adapter_query): Embedding(300, 4096)
  (criterion): CrossEntropyLoss()
  (layers): ModuleList(
    (0-31): 32 x TransformerBlock(
      (attention): Attention(
        (wq): Linear(in_features=4096, out_features=4096, bias=False)
        (wk): Linear(in_features=4096, out_features=4096, bias=False)
        (wv): Linear(in_features=4096, out_features=4096, bias=False)
        (wo): Linear(in_features=4096, out_features=4096, bias=False)
      )
      (feed_forward): FeedForward(
        (w1): Linear(in_features=4096, out_features=11008, bias=False)
        (w2): Linear(in_features=11008, out_features=4096, bias=False)
        (w3): Linear(in_features=4096, out_features=11008, bias=False)
      )
      (attention_norm): RMSNorm()
      (ffn_norm): RMSNorm()
    )
  )
  (norm): RMSNorm()
  (output): Linear(in_features=4096, out_features=32000, bias=False)
)
[15:50:46.003034] base lr: 9.00e-03
[15:50:46.003153] actual lr: 5.62e-04
[15:50:46.003243] accumulate grad iterations: 1
[15:50:46.003331] effective batch size: 16
[15:50:46.402855] AdamW (
Parameter Group 0
    amsgrad: False
    betas: (0.9, 0.95)
    capturable: False
    differentiable: False
    eps: 1e-08
    foreach: None
    fused: None
    lr: 0.0005625
…
