…
output_dir='/data1/data/sooh-data/llama/archiv/checkpoint/',
pin_mem=True,
rank=0,
resume='',
seed=0,
start_epoch=0,
warmup_epochs=2,
weight_decay=0.02,
world_size=8)
[21:25:54.248738] =================DATA VALIDATION=================
[21:25:54.249206] <__main__.InstructionDataset object at 0x7f828d0dd970>
[21:25:54.249325] <__main__.InstructionDataset object at 0x7f81e2b4b0d0>
[21:25:54.249527] Sampler_train = <torch.utils.data.distributed.DistributedSampler object at 0x7f81e17a5310>
[21:25:59.509329] /data1/data/sooh-data/llama/7B/consolidated.00.pth
[21:26:01.265307] Model = Transformer(
  (tok_embeddings): Embedding(32000, 4096)
  (adapter_query): Embedding(300, 4096)
  (criterion): CrossEntropyLoss()
  (layers): ModuleList(
    (0-31): 32 x TransformerBlock(
      (attention): Attention(
        (wq): Linear(in_features=4096, out_features=4096, bias=False)
        (wk): Linear(in_features=4096, out_features=4096, bias=False)
        (wv): Linear(in_features=4096, out_features=4096, bias=False)
        (wo): Linear(in_features=4096, out_features=4096, bias=False)
      )
      (feed_forward): FeedForward(
        (w1): Linear(in_features=4096, out_features=11008, bias=False)
        (w2): Linear(in_features=11008, out_features=4096, bias=False)
        (w3): Linear(in_features=4096, out_features=11008, bias=False)
      )
      (attention_norm): RMSNorm()
      (ffn_norm): RMSNorm()
    )
  )
  (norm): RMSNorm()
  (output): Linear(in_features=4096, out_features=32000, bias=False)
)
[21:26:01.265698] base lr: 9.00e-03
[21:26:01.265834] actual lr: 1.12e-03
[21:26:01.265945] accumulate grad iterations: 1
[21:26:01.266054] effective batch size: 32
[21:26:03.415550] AdamW (
Parameter Group 0
    amsgrad: False
    betas: (0.9, 0.95)
    capturable: False
    differentiable: False
    eps: 1e-08
    foreach: None
    fused: None
    lr: 0.001125
…
