…
        1., 1., 1., 1., 1., 1., 1., 1., 1., 1., 1., 1., 1., 1., 1., 1., 1., 1.,
        1., 1., 1., 1., 1., 1., 1., 1., 1., 1., 1., 1., 1., 1., 1., 1., 1., 1.,
        1., 1., 1., 1., 1., 1., 1., 1., 1., 1., 1., 1., 1., 1., 1., 1., 1., 1.,
        1., 1., 1., 1., 1., 1., 1., 1., 1., 1., 1., 1., 1., 1., 1., 1., 1., 1.,
        1., 1., 1., 1., 1., 1., 1., 1.]))
[09:44:22.975549] =================DATA VALIDATION=================
[09:44:22.975796] Sampler_train = <torch.utils.data.distributed.DistributedSampler object at 0x7f15e8eaf220>
[09:46:02.081338] /data1/data/sooh-data/llama/7B/consolidated.00.pth
[09:46:06.132721] Model = Transformer(
  (tok_embeddings): Embedding(32000, 4096)
  (adapter_query): Embedding(300, 4096)
  (criterion): CrossEntropyLoss()
  (layers): ModuleList(
    (0-31): 32 x TransformerBlock(
      (attention): Attention(
        (wq): Linear(in_features=4096, out_features=4096, bias=False)
        (wk): Linear(in_features=4096, out_features=4096, bias=False)
        (wv): Linear(in_features=4096, out_features=4096, bias=False)
        (wo): Linear(in_features=4096, out_features=4096, bias=False)
      )
      (feed_forward): FeedForward(
        (w1): Linear(in_features=4096, out_features=11008, bias=False)
        (w2): Linear(in_features=11008, out_features=4096, bias=False)
        (w3): Linear(in_features=4096, out_features=11008, bias=False)
      )
      (attention_norm): RMSNorm()
      (ffn_norm): RMSNorm()
    )
  )
  (norm): RMSNorm()
  (output): Linear(in_features=4096, out_features=32000, bias=False)
)
[09:46:06.133090] base lr: 9.00e-03
[09:46:06.133238] actual lr: 5.62e-04
[09:46:06.133383] accumulate grad iterations: 1
[09:46:06.133534] effective batch size: 16
[09:46:07.156112] AdamW (
Parameter Group 0
    amsgrad: False
    betas: (0.9, 0.95)
    capturable: False
    differentiable: False
    eps: 1e-08
    foreach: None
    fused: None
    lr: 0.0005625
…
