…
output_dir='/data1/data/sooh-data/llama/hipe/checkpoint-prompt2/',
pin_mem=True,
rank=0,
resume='',
seed=0,
start_epoch=0,
warmup_epochs=2,
weight_decay=0.02,
world_size=7)
[12:44:04.798079] =================DATA VALIDATION=================
[12:44:04.798478] <__main__.InstructionDataset object at 0x7fea837448b0>
[12:44:04.798599] <__main__.InstructionDataset object at 0x7fe9d80bf2b0>
[12:44:04.798779] Sampler_train = <torch.utils.data.distributed.DistributedSampler object at 0x7fe90c4000a0>
[12:45:00.102773] /data1/data/sooh-data/llama/7B/consolidated.00.pth
[12:45:03.903541] Model = Transformer(
  (tok_embeddings): Embedding(32000, 4096)
  (adapter_query): Embedding(300, 4096)
  (criterion): CrossEntropyLoss()
  (layers): ModuleList(
    (0-31): 32 x TransformerBlock(
      (attention): Attention(
        (wq): Linear(in_features=4096, out_features=4096, bias=False)
        (wk): Linear(in_features=4096, out_features=4096, bias=False)
        (wv): Linear(in_features=4096, out_features=4096, bias=False)
        (wo): Linear(in_features=4096, out_features=4096, bias=False)
      )
      (feed_forward): FeedForward(
        (w1): Linear(in_features=4096, out_features=11008, bias=False)
        (w2): Linear(in_features=11008, out_features=4096, bias=False)
        (w3): Linear(in_features=4096, out_features=11008, bias=False)
      )
      (attention_norm): RMSNorm()
      (ffn_norm): RMSNorm()
    )
  )
  (norm): RMSNorm()
  (output): Linear(in_features=4096, out_features=32000, bias=False)
)
[12:45:03.903801] base lr: 9.00e-03
[12:45:03.903935] actual lr: 9.84e-04
[12:45:03.904040] accumulate grad iterations: 1
[12:45:03.904142] effective batch size: 28
[12:45:04.240593] AdamW (
Parameter Group 0
    amsgrad: False
    betas: (0.9, 0.95)
    capturable: False
    differentiable: False
    eps: 1e-08
    foreach: None
    fused: None
    lr: 0.000984375
…
