…
output_dir='/data1/data/sooh-data/llama/hipe/checkpoint-prompt2/',
pin_mem=True,
rank=0,
resume='',
seed=0,
start_epoch=0,
warmup_epochs=2,
weight_decay=0.02,
world_size=7)
[14:17:55.092400] =================DATA VALIDATION=================
[14:17:55.092864] <__main__.InstructionDataset object at 0x7fc2743939d0>
[14:17:55.092989] <__main__.InstructionDataset object at 0x7fc1bc1d8040>
[14:17:55.093163] Sampler_train = <torch.utils.data.distributed.DistributedSampler object at 0x7fc13c0570a0>
[14:18:00.184576] /data1/data/sooh-data/llama/7B/consolidated.00.pth
[14:18:02.415862] Model = Transformer(
  (tok_embeddings): Embedding(32000, 4096)
  (adapter_query): Embedding(300, 4096)
  (criterion): CrossEntropyLoss()
  (layers): ModuleList(
    (0-31): 32 x TransformerBlock(
      (attention): Attention(
        (wq): Linear(in_features=4096, out_features=4096, bias=False)
        (wk): Linear(in_features=4096, out_features=4096, bias=False)
        (wv): Linear(in_features=4096, out_features=4096, bias=False)
        (wo): Linear(in_features=4096, out_features=4096, bias=False)
      )
      (feed_forward): FeedForward(
        (w1): Linear(in_features=4096, out_features=11008, bias=False)
        (w2): Linear(in_features=11008, out_features=4096, bias=False)
        (w3): Linear(in_features=4096, out_features=11008, bias=False)
      )
      (attention_norm): RMSNorm()
      (ffn_norm): RMSNorm()
    )
  )
  (norm): RMSNorm()
  (output): Linear(in_features=4096, out_features=32000, bias=False)
)
[14:18:02.416122] base lr: 9.00e-03
[14:18:02.416235] actual lr: 9.84e-04
[14:18:02.416322] accumulate grad iterations: 1
[14:18:02.416411] effective batch size: 28
[14:18:02.891210] AdamW (
Parameter Group 0
    amsgrad: False
    betas: (0.9, 0.95)
    capturable: False
    differentiable: False
    eps: 1e-08
    foreach: None
    fused: None
    lr: 0.000984375
…
