…
output_dir='/data1/data/sooh-data/llama/hipe/checkpoint/',
pin_mem=True,
rank=0,
resume='',
seed=0,
start_epoch=0,
warmup_epochs=2,
weight_decay=0.02,
world_size=8)
[14:03:16.925958] =================DATA VALIDATION=================
[14:03:16.926264] <__main__.InstructionDataset object at 0x7f8e7312e940>
[14:03:16.926377] <__main__.InstructionDataset object at 0x7f8dc6ffbc40>
[14:03:16.926535] Sampler_train = <torch.utils.data.distributed.DistributedSampler object at 0x7f8da030ff40>
[14:03:22.290282] /data1/data/sooh-data/llama/7B/consolidated.00.pth
[14:03:24.797512] Model = Transformer(
  (tok_embeddings): Embedding(32000, 4096)
  (adapter_query): Embedding(300, 4096)
  (criterion): CrossEntropyLoss()
  (layers): ModuleList(
    (0-31): 32 x TransformerBlock(
      (attention): Attention(
        (wq): Linear(in_features=4096, out_features=4096, bias=False)
        (wk): Linear(in_features=4096, out_features=4096, bias=False)
        (wv): Linear(in_features=4096, out_features=4096, bias=False)
        (wo): Linear(in_features=4096, out_features=4096, bias=False)
      )
      (feed_forward): FeedForward(
        (w1): Linear(in_features=4096, out_features=11008, bias=False)
        (w2): Linear(in_features=11008, out_features=4096, bias=False)
        (w3): Linear(in_features=4096, out_features=11008, bias=False)
      )
      (attention_norm): RMSNorm()
      (ffn_norm): RMSNorm()
    )
  )
  (norm): RMSNorm()
  (output): Linear(in_features=4096, out_features=32000, bias=False)
)
[14:03:24.797780] base lr: 9.00e-03
[14:03:24.797915] actual lr: 1.12e-03
[14:03:24.798024] accumulate grad iterations: 1
[14:03:24.798132] effective batch size: 32
[14:03:25.127783] AdamW (
Parameter Group 0
    amsgrad: False
    betas: (0.9, 0.95)
    capturable: False
    differentiable: False
    eps: 1e-08
    foreach: None
    fused: None
    lr: 0.001125
…
