…
max_seq_len=512,
min_lr=0.0,
model='Llama7B_adapter',
num_workers=10,
output_dir='/data1/data/sooh-data/llama/checkpoint2/',
pin_mem=True,
rank=0,
resume='',
seed=0,
start_epoch=0,
warmup_epochs=2,
weight_decay=0.02,
world_size=4)
[10:32:54.444952] <__main__.InstructionDataset object at 0x7fa3e42229d0>
[10:32:54.445282] <__main__.InstructionDataset object at 0x7fa33023d1f0>
[10:32:54.446008] Sampler_train = <torch.utils.data.distributed.DistributedSampler object at 0x7fa3302a8490>
[10:32:59.254350] /data1/data/sooh-data/llama/7B/consolidated.00.pth
[10:33:02.766223] Model = Transformer(
  (tok_embeddings): Embedding(32000, 4096)
  (adapter_query): Embedding(300, 4096)
  (criterion): CrossEntropyLoss()
  (layers): ModuleList(
    (0-31): 32 x TransformerBlock(
      (attention): Attention(
        (wq): Linear(in_features=4096, out_features=4096, bias=False)
        (wk): Linear(in_features=4096, out_features=4096, bias=False)
        (wv): Linear(in_features=4096, out_features=4096, bias=False)
        (wo): Linear(in_features=4096, out_features=4096, bias=False)
      )
      (feed_forward): FeedForward(
        (w1): Linear(in_features=4096, out_features=11008, bias=False)
        (w2): Linear(in_features=11008, out_features=4096, bias=False)
        (w3): Linear(in_features=4096, out_features=11008, bias=False)
      )
      (attention_norm): RMSNorm()
      (ffn_norm): RMSNorm()
    )
  )
  (norm): RMSNorm()
  (output): Linear(in_features=4096, out_features=32000, bias=False)
)
[10:33:02.766547] base lr: 9.00e-03
[10:33:02.766711] actual lr: 5.62e-04
[10:33:02.766819] accumulate grad iterations: 1
[10:33:02.766939] effective batch size: 16
[10:33:02.820996] AdamW (
Parameter Group 0
    amsgrad: False
    betas: (0.9, 0.95)
    capturable: False
    differentiable: False
    eps: 1e-08
    foreach: None
    fused: None
    lr: 0.0005625
…
