…
output_dir='/data1/data/sooh-data/llama/archiv/checkpoint/',
pin_mem=True,
rank=0,
resume='',
seed=0,
start_epoch=0,
warmup_epochs=2,
weight_decay=0.02,
world_size=4)
[21:23:59.273381] =================DATA VALIDATION=================
[21:23:59.273902] <__main__.InstructionDataset object at 0x7f78aab8a9a0>
[21:23:59.274215] <__main__.InstructionDataset object at 0x7f77ff502370>
[21:23:59.274409] Sampler_train = <torch.utils.data.distributed.DistributedSampler object at 0x7f77ff254f70>
[21:24:04.341096] /data1/data/sooh-data/llama/7B/consolidated.00.pth
[21:24:06.366113] Model = Transformer(
  (tok_embeddings): Embedding(32000, 4096)
  (adapter_query): Embedding(300, 4096)
  (criterion): CrossEntropyLoss()
  (layers): ModuleList(
    (0-31): 32 x TransformerBlock(
      (attention): Attention(
        (wq): Linear(in_features=4096, out_features=4096, bias=False)
        (wk): Linear(in_features=4096, out_features=4096, bias=False)
        (wv): Linear(in_features=4096, out_features=4096, bias=False)
        (wo): Linear(in_features=4096, out_features=4096, bias=False)
      )
      (feed_forward): FeedForward(
        (w1): Linear(in_features=4096, out_features=11008, bias=False)
        (w2): Linear(in_features=11008, out_features=4096, bias=False)
        (w3): Linear(in_features=4096, out_features=11008, bias=False)
      )
      (attention_norm): RMSNorm()
      (ffn_norm): RMSNorm()
    )
  )
  (norm): RMSNorm()
  (output): Linear(in_features=4096, out_features=32000, bias=False)
)
[21:24:06.366441] base lr: 9.00e-03
[21:24:06.366572] actual lr: 5.62e-04
[21:24:06.366676] accumulate grad iterations: 1
[21:24:06.366783] effective batch size: 16
[21:24:06.987921] AdamW (
Parameter Group 0
    amsgrad: False
    betas: (0.9, 0.95)
    capturable: False
    differentiable: False
    eps: 1e-08
    foreach: None
    fused: None
    lr: 0.0005625
…
