…
output_dir='/data1/data/sooh-data/llama/archiv/checkpoint3/',
pin_mem=True,
rank=0,
resume='',
seed=0,
start_epoch=0,
warmup_epochs=2,
weight_decay=0.02,
world_size=8)
[07:32:12.212934] =================DATA VALIDATION=================
[07:32:12.213459] <__main__.InstructionDataset object at 0x7fb5748e6970>
[07:32:12.213626] <__main__.InstructionDataset object at 0x7fb4c92632b0>
[07:32:12.213834] Sampler_train = <torch.utils.data.distributed.DistributedSampler object at 0x7fb574b94880>
[07:33:18.359654] /data1/data/sooh-data/llama/7B/consolidated.00.pth
[07:33:24.475029] Model = Transformer(
  (tok_embeddings): Embedding(32000, 4096)
  (adapter_query): Embedding(300, 4096)
  (criterion): CrossEntropyLoss()
  (layers): ModuleList(
    (0-31): 32 x TransformerBlock(
      (attention): Attention(
        (wq): Linear(in_features=4096, out_features=4096, bias=False)
        (wk): Linear(in_features=4096, out_features=4096, bias=False)
        (wv): Linear(in_features=4096, out_features=4096, bias=False)
        (wo): Linear(in_features=4096, out_features=4096, bias=False)
      )
      (feed_forward): FeedForward(
        (w1): Linear(in_features=4096, out_features=11008, bias=False)
        (w2): Linear(in_features=11008, out_features=4096, bias=False)
        (w3): Linear(in_features=4096, out_features=11008, bias=False)
      )
      (attention_norm): RMSNorm()
      (ffn_norm): RMSNorm()
    )
  )
  (norm): RMSNorm()
  (output): Linear(in_features=4096, out_features=32000, bias=False)
)
[07:33:24.475356] base lr: 9.00e-03
[07:33:24.477641] actual lr: 1.12e-03
[07:33:24.477783] accumulate grad iterations: 1
[07:33:24.477906] effective batch size: 32
[07:33:25.145315] AdamW (
Parameter Group 0
    amsgrad: False
    betas: (0.9, 0.95)
    capturable: False
    differentiable: False
    eps: 1e-08
    foreach: None
    fused: None
    lr: 0.001125
…
